…
gradient_steps:
    value: 1
learning_rate:
    value: 0.0002
learning_starts:
    value: 50000
lr_schedule:
    value: FloatSchedule(ConstantSchedule(val=0.0002))
max_grad_norm:
    value: 10
n_envs:
    value: 1
n_steps:
    value: 1
num_timesteps:
    value: 0
observation_space:
    value: Box(0.0, 1.0, (7,), float32)
optimize_memory_usage:
    value: "False"
policy:
    value: |-
        DQNPolicy(
          (q_net): QNetwork(
            (features_extractor): FlattenExtractor(
              (flatten): Flatten(start_dim=1, end_dim=-1)
            )
            (q_net): Sequential(
              (0): Linear(in_features=7, out_features=64, bias=True)
              (1): ReLU()
              (2): Linear(in_features=64, out_features=64, bias=True)
              (3): ReLU()
              (4): Linear(in_features=64, out_features=4, bias=True)
            )
          )
          (q_net_target): QNetwork(
            (features_extractor): FlattenExtractor(
              (flatten): Flatten(start_dim=1, end_dim=-1)
            )
            (q_net): Sequential(
              (0): Linear(in_features=7, out_features=64, bias=True)
              (1): ReLU()
              (2): Linear(in_features=64, out_features=64, bias=True)
              (3): ReLU()
              (4): Linear(in_features=64, out_features=4, bias=True)
            )
          )
        )
policy_class:
    value: <class 'stable_baselines3.dqn.policies.DQNPolicy'>
policy_kwargs:
    value: '{}'
q_net:
    value: |-
        QNetwork(
          (features_extractor): FlattenExtractor(
            (flatten): Flatten(start_dim=1, end_dim=-1)
          )
          (q_net): Sequential(
            (0): Linear(in_features=7, out_features=64, bias=True)
            (1): ReLU()
            (2): Linear(in_features=64, out_features=64, bias=True)
            (3): ReLU()
            (4): Linear(in_features=64, out_features=4, bias=True)
          )
        )
q_net_target:
    value: |-
        QNetwork(
          (features_extractor): FlattenExtractor(
            (flatten): Flatten(start_dim=1, end_dim=-1)
          )
          (q_net): Sequential(
            (0): Linear(in_features=7, out_features=64, bias=True)
            (1): ReLU()
            (2): Linear(in_features=64, out_features=64, bias=True)
            (3): ReLU()
            (4): Linear(in_features=64, out_features=4, bias=True)
          )
        )
replay_buffer:
    value: <stable_baselines3.common.buffers.ReplayBuffer object at 0x11fff4c20>
replay_buffer_class:
    value: <class 'stable_baselines3.common.buffers.ReplayBuffer'>
replay_buffer_kwargs:
    value: '{}'
sde_sample_freq:
    value: -1
seed:
    value: None
start_time:
    value: 1762955975213654000
target_update_interval:
…
